models/3-computer-vision-CNN.pth (torch, 27338 bytes, 10 tensors)

conv_block_1.0.weight f4 [8, 1, 3, 3]
0.1887936 0.28355375 -0.51556116 0.8407584 -0.35729465 -0.5654853 -0.0062727537 0.12595548
0.054202013 -0.7211449 0.18844998 -0.010491689 -0.6549405 0.6520313 0.24585323 -0.66385424
1.0458792 -0.21872284 -0.1556133 0.08496611 -0.15357888 -0.039090954 -0.13538611 0.22112367
-0.2631234 -0.15367012 -0.09412491 -0.5355194 -0.4289866 -0.19344012 0.334913 -0.56363916
0.68682146 0.47943956 -0.53255016 0.35778162 0.1386604 -0.3656281 0.0970115 0.107996
0.57873064 -0.520493 0.055907723 0.52350974 0.03673782 0.50375867 -0.9307188 -0.078185104
-0.6005366 -1.5982414 -1.156302 -0.42059672 -1.7199106 -0.325148 -0.029742714 0.38662532
0.39013404 0.13634591 0.33947966 -0.38288042 -0.1148384 -0.7785329 0.05034037 -0.4701691
-0.7472342 -0.7687877 -0.1274531 -1.1875268 -1.0648631 0.060946073 -0.12312995 0.204241
00000000: 1c53 413e f52d 913e d1fb 03bf f13b 573f
00000010: 53ef b6be a5c3 10bf ac8b cdbb 79fa 003e
00000020: ee02 5e3d f49c 38bf 08f9 403e 55e5 2bbc
00000030: 2eaa 27bf 86eb 263f f3c0 7b3e 5af2 29bf
00000040: 5fdf 853f e1f8 5fbe 1859 1fbe b602 ae3d
00000050: c843 1dbe d61d 20bd a8a2 0abe 3e6e 623e
00000060: 1cb8 86be b35b 1dbe 90c4 c0bd cd17 09bf
00000070: 22a4 dbbe 2b15 46be b779 ab3e a84a 10bf
00000080: 88d3 2f3f 1a79 f53e 3555 08bf 272f b73e
00000090: fefc 0d3e 9b33 bbbe f7ad c63d 022d dd3d
000000a0: b127 143f 073f 05bf 7fff 643d bc04 063f
000000b0: 657a 163d 54f6 003f 9643 6ebf 831f a0bd
000000c0: c4bc 19bf 2d93 ccbf b401 94bf 7458 d7be
000000d0: 0826 dcbf cc79 a6be fea6 f3bc c1f3 c53e
000000e0: a6bf c73e 439e 0b3e 47d0 ad3e e708 c4be
000000f0: 6530 ebbd ef4d 47bf b431 4e3d 01ba f0be
00000100: be4a 3fbf 45cf 44bf 1183 02be e100 98bf
00000110: 6f4d 88bf 97a2 793d 8e2b fcbd 8d24 513e

conv_block_1.0.bias f4 [8]
0.16237617 0.26735356 -0.33062539 0.02500322 0.073640496 0.4374921 0.042906247 0.24175882
00000000: f045 263e 91e2 883e bb47 a9be 8ed3 cc3c
00000010: d4d0 963d f7fe df3e 76be 2f3d a08f 773e

conv_block_1.2.weight f4 [8, 8, 3, 3]
-0.064169064 -0.07289951 0.07230007 -0.014907463 0.045852013 -0.047252756 0.07727981 -0.122548014
-0.08367221 -0.0075080073 0.08930205 -0.083394535 0.14631605 0.227352 -0.043826915 0.0044671902
0.15022933 -0.17183094 -0.04178016 -0.11403212 -0.06748983 0.029439645 -0.015555545 -0.085546486
0.0027643978 -0.08050193 -0.099984504 -0.043150038 -0.096620716 -0.08074866 0.18691522 0.060742013
0.11951947 -0.12483915 -0.10263119 -0.030242577 -0.008099739 -0.1601547 -0.12315625 -0.046119828
0.010131277 -0.08746911 -0.010870371 -0.061628718 -0.21347709 -0.114752114 -0.11574541 -0.09511903
0.08484345 -0.061834626 0.105213135 0.0045905584 -0.06603637 0.16417724 -0.055047486 -0.06977501
-0.11523266 -0.14923958 0.014218973 -0.043749798 0.06090166 -0.038653664 0.1682567 -0.12077924
-0.048547998 0.02619862 0.049793158 0.06641171 0.10775096 -0.11086648 0.004151724 -0.03799974
-0.035999015 -0.12709686 0.121953845 -0.1063305 0.047494885 0.050009668 0.011113896 -0.09817874
0.0804727 0.11726865 0.016419673 -0.17662178 0.13547161 -0.041412998 -0.11928788 0.16474013
0.017817404 -0.11568563 -0.059649043 -0.005628065 0.06580351 -0.030114949 -0.0672429 -0.04035728
-0.088043615 0.04202954 0.09122152 -0.12595478 0.008832853 0.015389678 0.01151789 -0.047737826
0.044962607 0.058467146 0.037935954 -0.027125144 -0.042226255 0.010921559 0.0032806478 -0.056521367
0.05339297 0.06965544 -0.104729995 -0.059553336 -0.036368445 -0.007083078 0.031000992 0.033266142
-0.10816584 -0.043572184 0.09862267 0.028564917 -0.019751526 -0.08755705 -0.090756245 -0.09755266
-0.013190976 0.043908328 0.100341775 0.080512315 -0.14245567 -0.114145614 -0.05223522 0.10666313
0.008034386 -0.04441224 0.05027291 -0.043861836 -0.07831753 0.07971734 -0.061084125 -0.03162425
-0.11776157 0.26103225 0.22132549 -0.18155432 0.09989402 0.0038804444 -0.54859483 0.19068408
-0.09497415 0.08155673 0.20927452 -0.5071026 0.06408249 -0.04732002 -0.3718748 -0.33587086
0.21220489 0.0407772 -0.023717845 -0.06782395 -0.021475252 -0.08294774 -0.077005774 0.039092496
-0.03502493 0.07275459 -0.037807677 -0.2949029 -0.25765982 -0.11494025 -0.13570997 -0.13781473
0.084823556 0.017107578 0.07139409 0.025342813 0.2766505 0.4476822 0.19464895 0.21706806
0.34865203 -0.0074558714 -0.281449 -0.39237356 -0.42038944 -0.22767861 -0.16269043 0.13796729
-0.02965076 -0.14120664 0.45755866 -0.061959486 -0.21006969 0.23568775 -0.07996288 -0.043338567
0.013892357 0.18816647 0.19983034 0.0072485995 0.07799583 -0.06007904 -0.2408957 0.019108789
0.009435792 0.057557385 -0.0565881 -0.14933784 0.014926106 -0.034228876 0.0040135058 0.037629627
-0.24788234 0.103459686 0.05663525 0.0032984372 -0.075879075 -0.14463295 -0.0785874 -0.31639466
-0.22734837 -0.093699224 -0.4163725 0.19328034 -0.37380695 0.05351332 0.3290178 0.25370082
0.25574255 0.13963938 0.11186934 0.03100467 0.07901031 0.11618796 -0.01805821 0.024460528
-0.08191067 -0.02428642 0.087278634 -0.079352364 -0.18569203 -0.014986423 -0.070730306 -0.06679938
-0.04366505 -0.034073666 0.109433316 0.18222068 -0.016575404 -0.29015347 0.26405463 -0.3813526
00000000: 126b 83bd 574c 95bd 0f12 943d 6f3e 74bc
00000010: 52cf 3b3d 1b8c 41bd e144 9e3d 74fa fabd
00000020: 565c abbd bb05 f6bb fee3 b63d c1ca aabd
00000030: e0d3 153e f6ce 683e da83 33bd 8261 923b
00000040: b8d5 193e 73f4 2fbe ac21 2bbd ac89 e9bd
00000050: 1c38 8abd 692b f13c afdc 7ebc ff32 afbd
00000060: e62a 353b 32de a4bd adc4 ccbd 18be 30bd
00000070: 15e1 c5bd 8e5f a5bd b466 3f3e 9ecc 783d
00000080: a0c6 f43d abab ffbd 4d30 d2bd 48bf f7bc
00000090: c5b4 04bc 98ff 23be 5839 fcbd 25e8 3cbd
000000a0: a8fd 253c 0123 b3bd a419 32bc 656e 7cbd
000000b0: bd99 5abe 2803 ebbd ee0b edbd c4cd c2bd
000000c0: 67c2 ad3d 4e46 7dbd fc79 d73d 656c 963b
000000d0: 143e 87bd 141e 283e 7979 61bd 33e6 8ebd
000000e0: 1aff ebbd 43d2 18be b2f6 683c fd32 33bd
000000f0: 0574 793d 4e53 1ebd 7c4b 2c3e 1b5b f7bd
00000100: 44da 46bd 7d9e d63c e9f3 4b3d dd02 883d
00000110: 89ac dc3d f70d e3bd 2f0b 883b 9ea5 1bbd
00000120: b473 13bd ae25 02be f0c2 f93d cec3 d9bd
00000130: ff89 423d f0d6 4c3d 0f17 363c ef11 c9bd
00000140: dfce a43d 8c2a f03d 8d82 863c 57dc 34be
00000150: 12b9 0a3e ada0 29bd 344d f4bd a3b1 283e
00000160: cef5 913c 96ec ecbd 8e52 74bd a26b b8bb
00000170: fec3 863d a0b3 f6bc a5b6 89bd ad4d 25bd
00000180: 3650 b4bd 2b27 2c3d 59d2 ba3d 4afa 00be
00000190: acb7 103c fd24 7c3c 88b5 3c3c bd88 43bd
000001a0: b62a 383d 3f7b 6f3d bb62 1b3d 8d35 debc
000001b0: 70f5 2cbd 57f0 323c 2300 573b f382 67bd
000001c0: 96b2 5a3d 83a7 8e3d ae7c d6bd 33ee 73bd
000001d0: 14f7 14bd 2a19 e8bb cbf5 fd3c 1442 083d
000001e0: 0d86 ddbd bf78 32bd affa c93d f900 ea3c
000001f0: f4cd a1bc 1c51 b3bd 69de b9bd b0c9 c7bd
00000200: f71e 58bc 38d9 333d fd7f cd3d a4e3 a43d
00000210: e6df 11be 2dc5 e9bd 99f4 55bd 3372 da3d
00000220: a8a2 033c 9ce9 35bd f8ea 4d3d 78a8 33bd
00000230: f164 a0bd d842 a33d 5933 7abd 6e88 01bd
00000240: fa2c f1bd 05a6 853e 26a3 623e 60e9 39be
00000250: 3c95 cc3d 0e4f 7e3b b670 0cbf b042 433e
00000260: cf81 c2bd 3707 a73d 0f4c 563e 7ad1 01bf
00000270: ae3d 833d a3d2 41bd 6066 bebe 44f7 abbe
00000280: 3d4c 593e fe05 273d ed4b c2bc 48e7 8abd
00000290: deec afbc 81e0 a9bd 34b5 9dbd 741f 203d
000002a0: 4d76 0fbd 5c00 953d 39dc 1abd 83fd 96be
000002b0: fdeb 83be cb65 ebbd 8ef7 0abe 4e1f 0dbe
000002c0: f9b7 ad3d 3125 8c3c 1137 923d bb9b cf3c
000002d0: 22a5 8d3e 9a36 e53e 0e52 473e 1747 5e3e
000002e0: 8582 b23e 6250 f4bb 151a 90be 30e5 c8be
000002f0: 493d d7be 9524 69be 5298 26be 4c47 0d3e
00000300: 27e6 f2bc 7998 10be 2145 ea3e 3bc9 7dbd
00000310: 821c 57be 2158 713e 94c3 a3bd c883 31bd
00000320: c59c 633c b6ae 403e 53a0 4c3e a985 ed3b
00000330: 47bc 9f3d 7015 76bd 5dad 76be 098a 9c3c
00000340: 9598 1a3c 4bc1 6b3d ecc8 67bd 05ec 18be
00000350: a08c 743c 9433 0cbd ba83 833b 8621 1a3d
00000360: ded4 7dbe ace2 d33d 5dfa 673d 982a 583b
00000370: 7d66 9bbd a91a 14be 6ef2 a0bd 7bfe a1be
00000380: 03ce 68be 61e5 bfbd c72e d5be 48eb 453e
00000390: a063 bfbe c830 5b3d 0575 a83e 13e5 813e
000003a0: b0f0 823e a0fd 0e3e c11b e53d 81fd fd3c
000003b0: 28d0 a13d f4f3 ed3d d0ee 93bc 7261 c83c
000003c0: c8c0 a7bd 50f4 c6bc 24bf b23d 7e83 a2bd
000003d0: 0d26 3ebe 9d89 75bc 0ddb 90bd 1dce 88bd
000003e0: 20da 32bd d490 0bbd 931e e03d 0f98 3a3e
000003f0: 24c9 87bc ff8e 94be 2b32 873e a640 c3be

conv_block_1.2.bias f4 [8]
-0.0037031826 -0.11336251 0.11024453 0.24528353 0.08729661 -0.035020933 0.00010829255 -0.0061954255
00000000: 18b1 72bb 9b2a e8bd e2c7 e13d 9b2b 7b3e
00000010: 91c8 b23d 1c72 0fbd 1f1b e338 ff02 cbbb

conv_block_2.0.weight f4 [8, 8, 3, 3]
-0.015960675 0.009219648 0.09601462 -0.06185946 0.02182158 -0.047261957 -0.057532195 -0.06435372
0.081390955 -0.020293124 -0.097846515 0.08283251 -0.10576873 0.02064587 -0.07682178 -0.048561048
0.09270891 0.004485267 -0.2804659 0.1069506 0.013485306 0.14123395 0.25208318 -0.16913909
-0.29730293 0.008633704 0.08161329 -0.05163768 0.18479075 0.23236236 -0.3219007 0.17001958
0.049377643 -0.23512056 -0.06641668 -0.058043595 0.07372369 -0.26007032 -0.2017482 -0.28248212
0.2499023 -0.27524295 0.106825545 0.031724695 0.186815 -0.34556043 -0.45380792 0.50201833
-0.032571416 -0.19637778 0.35718086 0.59998775 0.05468559 -0.40558204 -0.03819156 -0.028808014
0.24950178 -0.2182955 0.34622848 0.08861604 -0.28636625 -0.049185697 -0.16277865 -0.5125658
-0.62062794 0.20915365 0.094708785 -0.11157824 0.1334755 0.49242264 0.48568204 0.020864028
-0.1385086 -0.09284659 0.09822945 0.025780173 0.054247998 0.009074753 -0.001927206 0.11535818
-0.09247791 -0.07548398 0.089858115 -0.1279967 -0.05649046 0.07273787 -0.023881821 0.08167168
-0.081899025 -0.019958349 0.036613617 0.018586818 0.13539301 -0.018335445 -0.2346767 0.021552159
0.38765547 0.14670485 -0.47219425 0.07130284 0.1367544 0.027237106 -0.061949108 -0.5358331
0.16527878 -0.059315953 -0.13463058 0.22338057 -0.017175103 -0.23140837 0.41047844 -0.30403093
-0.62525827 0.12669374 -0.42824206 -0.19087312 -0.31418306 0.11835876 0.414808 0.5674509
-0.61222416 -0.28839624 0.06225322 -0.15685137 -0.16995163 -0.28512454 0.3111768 0.27344462
0.3479997 -0.076182246 -0.22525588 -0.73632693 0.11989627 0.03258782 -0.34109604 0.3067674
0.21212795 0.5821468 0.049612407 0.009418422 -0.019879365 -0.58718157 -0.37575987 -0.34587288
0.13223031 -0.056314602 -0.039427508 -0.08896852 -0.023905825 0.009921566 0.05067974 -0.042133324
0.11428409 -0.008659578 -0.054841984 0.07366514 0.050596714 0.10428085 -0.059810285 -0.014892126
-0.037350282 -0.0322428 0.08166934 0.22442602 0.32829565 0.28546873 -0.35987994 -0.16482268
0.022751192 -0.31939703 -0.23607118 0.06969851 0.048574563 -0.011822772 -0.17139956 0.07052939
0.5680786 -0.7252082 -0.34725925 0.05820954 0.035853658 -0.2818145 0.044381104 -0.28643587
-0.01618343 0.19211455 -0.040671237 -0.046120718 -0.31362256 0.19792034 0.16134211 -0.032313745
-0.3090737 0.18373446 0.11186777 0.024420906 0.25925264 -0.4254852 0.22171345 -0.1491035
-0.14078806 0.28522024 0.02646739 -0.080830604 0.031965222 -0.0024610495 -0.047621667 -0.29735503
-0.48012546 -0.35530725 0.06934489 0.4883722 0.6602911 0.022013849 0.16791445 -0.1123473
-0.015394089 -0.030384945 -0.020175384 0.08708793 0.04494927 0.0752229 0.093961075 -0.04221774
-0.10466302 0.026543776 -0.045350503 -0.06415507 0.035322726 -0.027853284 0.054020587 0.10226616
-0.033488832 -0.077642225 0.1665953 -0.23443688 0.11752484 0.5254004 0.13285436 -0.2334631
0.062730946 -0.21960403 -0.6839134 -0.12236373 -0.20923206 0.0964673 -0.17126615 -0.124322794
0.22580612 0.2356108 0.14270568 -0.078658074 0.014558554 0.038645092 -0.01783594 0.10354426
00000000: f6bf 82bc 020e 173c 50a3 c43d 5860 7dbd
00000010: 2cc3 b23c c195 41bd e1a6 6bbd e2cb 83bd
00000020: 4db0 a63d c43d a6bc c163 c8bd 17a4 a93d
00000030: 479d d8bd 8721 a93c bd54 9dbd f3e7 46bd
00000040: 2bde bd3d 26f9 923b 3a99 8fbe eb08 db3d
00000050: 79f1 5c3c a29f 103e 0c11 813e cc32 2dbe
00000060: 1738 98be 6174 0d3c de24 a73d 0882 53bd
00000070: c939 3d3e 66f0 6d3e 2bd0 a4be 9d19 2e3e
00000080: 3640 4a3d 72c3 70be 7805 88bd 1fbf 6dbd
00000090: 72fc 963d f027 85be 1597 4ebe 7fa1 90be
000000a0: 63e6 7f3e a5ec 8cbe 5ac7 da3d c1f1 013d
000000b0: 6e4c 3f3e 4ced b0be 8359 e8be 4684 003f
000000c0: 9b69 05bd 4217 49be 69e0 b63e cc98 193f
000000d0: fffd 5f3d 73a8 cfbe c16e 1cbd c9fe ebbc
000000e0: 657d 7f3e db88 5fbe dc44 b13e 547c b53d
000000f0: 999e 92be f176 49bd 72af 26be 8337 03bf
00000100: 79e1 1ebf 602c 563e aef6 c13d 2283 e4bd
00000110: cdad 083e d21e fc3e 51ab f83e 0aeb aa3c
00000120: 33d5 0dbe 5a26 bebd 862c c93d f130 d33c
00000130: 2633 5e3d 46ae 143c 4d9a fcba e940 ec3d
00000140: 0f65 bdbd 5897 9abd 8807 b83d 9111 03be
00000150: 8a62 67bd 98f7 943d cfa3 c3bc 7b43 a73d
00000160: adba a7bd b17f a3bc 29f8 153d 6243 983c
00000170: 77a4 0a3e 3734 96bc 174f 70be 278e b03c
00000180: c77a c63e cc39 163e 72c3 f1be 3907 923d
00000190: 5809 0c3e 5a20 df3c 59be 7dbd 5c2c 09bf
000001a0: d73e 293e 49f5 72bd 99dc 09be e0bd 643e
000001b0: cdb2 8cbc 51f6 6cbe 3b2a d23e f1a9 9bbe
000001c0: ed10 20bf 01bc 013e 8b42 dbbe 3e74 43be
000001d0: 9adc a0be 1466 f23d b761 d43e 7644 113f
000001e0: b9ba 1cbf aca8 93be 3bfd 7e3d a59d 20be
000001f0: cd07 2ebe d8fb 91be 9152 9f3e ef00 8c3e
00000200: 042d b23e 7005 9cbd 7aa9 66be ec7f 3cbf
00000210: 2d8c f53d ce7a 053d 24a4 aebe 9e10 9d3e
00000220: 1238 593e 9307 153f 6136 4b3d ba4f 1a3c
00000230: 0dda a2bc 8851 16bf 9963 c0be 4016 b1be
00000240: 6267 073e 24aa 66bd bd7e 21bd 2135 b6bd
00000250: 26d6 c3bc 108e 223c 8f95 4f3d fe93 2cbd
00000260: c70d ea3d e7e0 0dbc fda1 60bd c0dd 963d
00000270: 803e 4f3d 3391 d53d a1fb 74bd 1bfe 73bc
00000280: 9cfc 18bd 0711 04bd 4142 a73d efcf 653e
00000290: 5e16 a83e f528 923e 2f42 b8be 47c7 28be
000002a0: b560 ba3c 0288 a3be a5bc 71be 18be 8e3d
000002b0: 1ff6 463d 4db4 41bc 5e83 2fbe b671 903d
000002c0: 996d 113f 3fa7 39bf f7cb b1be 206d 6e3d
000002d0: 49db 123d fd49 90be f6c8 353d b9a7 92be
000002e0: 1d93 84bc adb9 443e e296 26bd 14e9 3cbd
000002f0: 2393 a0be a1ab 4a3e de36 253e 6b5b 04bd
00000300: e83e 9ebe e324 3c3e ee1a e53d 5a0e c83c
00000310: c3bc 843e 32d9 d9be da08 633e 97ae 18be
00000320: bf2a 10be 6308 923e 24d2 d83c 848a a5bd
00000330: f7ed 023d 8f49 21bb f00e 43bd eb3e 98be
00000340: 01d3 f5be d5ea b5be b204 8e3d ec0b fa3e
00000350: d608 293f 6356 b43c c4f1 2b3e 5716 e6bd
00000360: 7d37 7cbc d9e9 f8bc d946 a5bc 285b b23d
00000370: ba1c 383d 770e 9a3d aa6e c03d 82ec 2cbd
00000380: 9159 d6bd 5572 d93c 73c1 39bd bc63 83bd
00000390: 90ae 103d 922c e4bc b144 5d3d ec70 d13d
000003a0: 962b 09bd e302 9fbd f597 2a3e 3910 70be
000003b0: ddb0 f03d a480 063f f90a 083e f310 6fbe
000003c0: 1579 803d e1df 60be f314 2fbf d699 fabd
000003d0: ee40 56be a690 c53d 6560 2fbe f39c febd
000003e0: b839 673e f543 713e 7021 123e 7c17 a1bd
000003f0: 0087 6e3c 514a 1e3d ad1c 92bc 030f d43d

conv_block_2.0.bias f4 [8]
0.07597146 0.17383859 0.16021919 0.62007993 0.8254094 0.10316596 0.14250742 0.034926534
00000000: ed96 9b3d be02 323e 8010 243e 8fbd 1e3f
00000010: 084e 533f ad48 d33d 77ed 113e 200f 0f3d

conv_block_2.2.weight f4 [8, 8, 3, 3]
0.08558393 -0.14742446 -0.06567507 -0.16516376 -0.20648599 -0.16596606 0.053908963 0.100993924
-0.013228747 -0.014305075 -0.27712226 -0.19846046 -0.009982831 0.038180616 -0.1819024 -0.22640641
-0.1300938 0.14967173 0.3533369 -0.31253335 -0.32106936 -0.48049432 -0.39029282 -0.51774824
-0.19380549 0.11387091 -0.2693013 0.08439463 0.11139922 0.031538103 -0.1583307 0.041722573
-0.081244126 0.046678856 -0.0441944 -0.4725442 -0.43166047 0.13828348 -0.12812188 0.19531141
0.1307461 -0.29827067 0.29803398 0.11524836 -0.24135455 0.33183464 0.1469619 -0.35851124
-0.20373373 -0.269344 -0.22447728 -0.38828832 -0.16180551 -0.32469812 0.05946332 -0.11821421
-0.10291761 0.26972732 0.38213465 0.21097301 0.031734545 0.025699126 -0.012363079 0.5161772
0.2920635 -0.2261903 0.09281973 -0.28547102 -0.25989324 -0.15105145 -0.5853525 -0.05567092
-0.17301656 0.5490221 0.080611974 -0.30064037 -0.20603757 -0.054150734 -0.101636976 0.023190804
-0.033010155 0.082578324 -0.54699636 0.009084957 0.2536433 -0.2320336 -0.24437009 0.018368986
0.26882222 0.06232956 0.60855347 -0.34579173 -0.39710692 0.057086077 -0.35255238 -0.19516815
-0.2841744 -0.1412226 -0.11710007 0.2086979 -0.21118821 0.04019835 0.13313235 -0.17696273
0.18099642 0.12922007 -0.03946181 -0.051541638 -0.0855302 0.17584151 0.00035088093 0.045481928
0.00720319 0.032133102 -0.44561303 0.23890436 -0.015306561 -0.050199978 0.075920634 -0.5298019
-0.16783166 -0.015268363 -0.2899738 -0.1396002 -0.12852411 -0.07850451 0.23310876 -0.19556282
0.10980207 -0.04171162 -0.014499348 0.19112544 -0.16109277 -0.044492517 0.15488307 -0.52723455
0.06653032 0.018860143 -0.43700445 -0.0058738976 -0.17889374 -0.0341632 -0.18514614 -0.20484664
-0.00495096 -0.072445005 0.46758848 -0.35141918 -0.2385587 -0.24629606 -0.16435386 -0.028568266
0.06901318 0.050405234 -0.006509272 -0.2118406 -0.24952585 -0.015499416 -0.31728914 -0.036876928
0.085269794 -0.15413526 -0.19683786 0.09897237 -0.19620529 -0.14130881 -0.06103863 -0.28550473
0.05976115 0.19449751 -0.15661353 0.47278923 0.32363468 -0.05531191 0.088902414 -0.033418316
-0.038053147 0.014123456 0.016020989 -0.29089975 -0.13695627 -0.08609533 -0.12790458 0.56762856
0.59469044 0.22474077 -0.17418584 0.09579829 0.053805023 -0.015302285 -0.33284184 -0.09431039
-0.04664766 -0.0945341 -0.28484857 0.03231572 -0.10712359 -0.11997137 -0.18486725 0.07455066
-0.42467296 -0.27853 -0.15276967 -0.46468094 0.4017521 0.12845567 0.0177288 -0.12966925
-0.38511783 0.10160392 0.034381792 -0.19961783 -0.084056646 -0.13853242 -0.1907775 -0.121700294
-0.1432367 -0.36926082 -0.112334155 -0.24994725 0.24938981 0.37551284 0.12968189 0.06660625
0.0022911686 0.03490649 -0.45107466 -0.15203767 -0.24629326 -0.1763861 0.45506626 -0.05151308
0.014815833 -0.27191052 -0.32395688 -0.07671346 0.05913712 -0.504967 -0.09514594 0.1143821
-0.056215536 -0.1627958 0.08614549 -0.25981417 -0.048902225 -0.3533483 -0.18504697 -0.29364997
-0.16684663 0.17095737 0.042362805 0.10233035 0.49996185 0.06936143 -0.43257567 0.038370196
00000000: a146 af3d 70f6 16be a780 86bd b020 29be
00000010: 1071 53be 02f3 29be a5cf 5c3d e7d5 ce3d
00000020: 63bd 58bc d55f 6abc f8e2 8dbe 3839 4bbe
00000030: 078f 23bc 4763 1c3d 9f44 3abe 15d7 67be
00000040: 4f37 05be 8c43 193e 93e8 b43e 5f04 a0be
00000050: 3463 a4be 5a03 f6be 76d4 c7be 268b 04bf
00000060: f274 46be 2735 e93d dce1 89be 17d7 ac3d
00000070: 4625 e43d 192e 013d 7121 22be 4ae5 2a3d
00000080: 5263 a6bd 5432 3f3d 3005 35bd 50f1 f1be
00000090: 9a02 ddbe 2f9a 0d3e 6232 03be b7ff 473e
000000a0: 4ee2 053e efb6 98be e997 983e 5507 ec3d
000000b0: a625 77be 3be6 a93e 2e7d 163e c98e b7be
000000c0: 939f 50be 75e7 89be 5fdd 65be bacd c6be
000000d0: 58b0 25be d53e a6be cf8f 733d 4b1a f2bd
000000e0: 78c6 d2bd b319 8a3e 27a7 c33e 4f09 583e
000000f0: 15fc 013d f986 d23c 838e 4abc 3024 043f
00000100: 5989 953e 6e9e 67be 4518 be3d 4229 92be
00000110: ba10 85be 3bad 1abe a9d9 15bf 3107 64bd
00000120: 412b 31be b68c 0c3f e417 a53d 89ed 99be
00000130: 83fb 52be 29cd 5dbd 0c27 d0bd a4fa bd3c
00000140: a835 07bd d31e a93d f407 0cbf 12d9 143c
00000150: 89dd 813e 379a 6dbe 273c 7abe 8e7a 963c
00000160: 11a3 893e 484d 7f3d 29ca 1b3f 9d0b b1be
00000170: 9951 cbbe 17d3 693d bf81 b4be 29da 47be
00000180: 4f7f 91be a89c 10be 29d2 efbd e7b4 553e
00000190: b941 58be 06a7 243d d953 083e b835 35be
000001a0: 2057 393e 4452 043e b5a2 21bd 531d 53bd
000001b0: 752a afbd cc0f 343e 71f6 b739 424b 3a3d
000001c0: bd08 ec3b 009e 033d 6427 e4be 58a3 743e
000001d0: 5fc8 7abc 7e9e 4dbd 477c 9b3d 19a1 07bf
000001e0: 10dc 2bbe 2828 7abc 7277 94be 5bf3 0ebe
000001f0: d39b 03be f9c6 a0bd 10b4 6e3e 9f41 48be
00000200: e8df e03d ced9 2abd ac8e 6dbc 63b6 433e
00000210: 81f5 24be c93d 36bd ab99 1e3e d8f8 06bf
00000220: 0c41 883d 9680 9a3c 0cbf dfbe d379 c0bb
00000230: ec2f 37be b6ee 0bbd f396 3dbe 51c3 51be
00000240: aa3b a2bb 0c5e 94bd c267 ef3e 37ed b3be
00000250: bb48 74be 0935 7cbe 614c 28be ff07 eabc
00000260: c856 8d3d b875 4e3d bb4b d5bb beec 58be
00000270: b483 7fbe 43f1 7dbc b973 a2be 430c 17bd
00000280: eea1 ae3d a2d5 1dbe dd8f 49be 07b2 ca3d
00000290: 0aea 48be 42b3 10be a403 7abd ad2d 92be
000002a0: 1cc8 743d 5b2a 473e 4c5f 20be 6e11 f23e
000002b0: 72b3 a53e be8e 62bd 7812 b63d a5e1 08bd
000002c0: 9edd 1bbd 1166 673c 733e 833c d0f0 94be
000002d0: 443e 0cbe c052 b0bd 6bf9 02be 1b50 113f
000002e0: a23d 183f 7222 663e c65d 32be e531 c43d
000002f0: a862 5c3d 6fb6 7abc 3f6a aabe ce25 c1bd
00000300: 9e11 3fbd 189b c1bd acd7 91be 7d5d 043d
00000310: 9d63 dbbd 8db3 f5bd d74d 3dbe 04ae 983d
00000320: bc6e d9be 7c9b 8ebe a76f 1cbe a9ea edbe
00000330: 74b2 cd3e e289 033e fd3b 913c 04c8 04be
00000340: 2a2e c5be b715 d03d ecd3 0c3d 9e68 4cbe
00000350: e425 acbd 71db 0dbe 2d5b 43be 013e f9bd
00000360: a4ac 12be c10f bdbe 730f e6bd 2cf2 7fbe
00000370: 0b60 7f3e 3843 c03e 54cb 043e dc68 883d
00000380: 6e27 163b 1cfa 0e3d 42f3 e6be c3af 1bbe
00000390: 4d34 7cbe 8f9e 34be 72fe e83e 61ff 52bd
000003a0: 1cbe 723c db37 8bbe addd a5be f21b 9dbd
000003b0: c439 723d 8445 01bf e0db c2bd 2a41 ea3d
000003c0: 4342 66bd f1b3 26be 0c6d b03d 5d06 85be
000003d0: b34d 48bd 12ea b4be f47c 3dbe 4a59 96be
000003e0: d8d9 2abe 730f 2f3e 9f84 2d3d 9392 d13d
000003f0: 00fb ff3e 5e0d 8e3d 8f7a ddbe 112a 1d3d

conv_block_2.2.bias f4 [8]
0.32983556 0.055592775 0.25950825 -0.14511415 -0.022333775 -0.25931132 0.03434762 -0.032794487
00000000: 35e0 a83e 40b5 633d 44de 843e ce98 14be
00000010: 52f5 b6bc 74c4 84be 17b0 0c3d 8353 06bd

classifier.1.weight f4 [10, 392]
-0.038316615 0.19205503 0.3381105 -0.032516725 0.4396468 -0.089083366 0.26046267 0.012814581
0.10470661 0.10553821 -0.19811569 0.30363965 0.18698746 -0.036790743 0.051101387 0.06911567
-0.1693694 -0.1499406 0.31223837 0.37402 -0.1326341 0.024667481 -0.12391765 -0.04512179
-0.1524032 0.047544386 0.010194679 -0.12136053 -0.25135973 -0.12296626 0.018297806 -0.16820623
-0.1332831 -0.014940382 -0.23712975 0.11748028 -0.24826247 0.10821434 -0.10989196 0.26319513
-0.18987912 -0.0039639296 -0.11988588 0.21945904 0.006790628 0.12582129 0.050999083 -0.13697861
0.0805269 -0.118869595 -0.120631225 -0.01527504 0.13744546 0.022623137 0.1566886 0.08772693
0.16546528 0.052696038 -0.091284916 -0.30701274 -0.106611796 0.009489761 0.07292838 0.06817716
0.10437258 -0.065549694 -0.23592241 -0.05973255 -0.09168468 -0.027629249 0.10895654 -0.045768898
-0.09755641 -0.11671972 0.043945342 0.030357141 -0.17967705 0.13825588 0.03822353 -0.021106616
0.0044638775 -0.07363594 0.076117925 -0.05549635 0.0754554 0.15952249 -0.118528314 -0.015768327
-0.18453768 -0.041603055 0.0016128138 -0.05478579 0.06374005 -0.1193639 -0.15826336 -0.06685148
0.042556234 0.1781441 0.00039305893 -0.12011457 -0.3746055 0.08416234 0.15997382 0.0005552483
0.0805914 0.010692438 0.45298886 -0.19365224 -0.03916107 0.13791527 0.20352022 0.02132827
0.123415746 0.23496899 -0.030974982 0.16755155 0.07845178 0.010221745 -0.052180354 0.12124674
0.110987976 -0.15826903 0.08737254 -0.18871474 -0.20411445 -0.09028323 -0.023667874 0.022252211
0.037310407 0.016234746 -0.094725624 -0.23517276 -0.14766668 -0.054206356 -0.03844775 0.20915572
0.060685486 0.1677984 -0.23321217 -0.08398502 -0.09497683 0.1862675 0.16955845 0.27541322
0.38539612 0.029838018 -0.0253063 0.0491514 -0.13085797 -0.20924409 0.04340531 0.4288456
-0.113238834 0.005149679 -0.058540016 0.018408945 -0.062022306 0.008718604 -0.30512252 0.10821856
0.01504378 0.15199688 0.18030766 0.008303219 -0.024319457 0.3215421 -0.09325673 0.032208465
-0.06261017 -0.027202155 -0.023052711 -0.025395228 0.3130902 0.11331907 -0.112365276 -0.14433248
0.23564406 -0.04192618 -0.10002793 -0.1011872 0.0606172 0.05748245 0.25549403 0.059649598
0.05788647 -0.26757666 -0.091228016 -0.07853629 -0.03622922 -0.07159572 -0.40354615 -0.2882192
0.042232726 -0.03980819 -0.17430104 -0.0819877 0.0887537 -0.07041765 -0.06116003 -0.02901991
0.14457878 -0.0027903588 -0.007134337 0.008166162 -0.05603403 0.12735818 0.23362975 0.26104698
0.20911825 0.21782407 0.13095376 0.41954795 -0.0021029839 0.26693845 0.10552791 0.2342373
0.29674757 0.36317942 0.13574328 -0.3348258 -0.064812064 -0.17241608 -0.12800908 0.07276968
-0.0035086323 0.050738372 -0.024324415 -0.07607679 -0.0041231327 -0.2357975 0.009281724 -0.0418874
-0.04071189 -0.04574366 0.16186917 0.200497 0.0003383383 -0.19472772 0.0031174584 0.04594359
0.023505216 -0.30373666 0.1522781 -0.08319301 -0.23268288 0.201638 -0.026108282 0.049312998
0.0039498876 0.35891354 0.2214252 0.030099127 0.08570556 0.12947455 0.09264684 0.18582407
00000000: e2f1 1cbd 13aa 443e d21c ad3e 4230 05bd
00000010: 6319 e13e 5771 b6bd 5d5b 853e 40f4 513c
00000020: 6b70 d63d 6b24 d83d d7de 4abe a876 9b3e
00000030: a479 3f3e e4b1 16bd b04f 513d 848c 8d3d
00000040: 2c6f 2dbe 078a 19be b5dd 9f3e 8d7f bf3e
00000050: 3cd1 07be 7513 ca3c 89c8 fdbd a0d1 38bd
00000060: 960f 1cbe e7bd 423d 9507 273c df8b f8bd
00000070: 39b2 80be bcd5 fbbd 48e5 953c 413e 2cbe
00000080: 5d7b 08be 81c8 74bc 24d2 72be 8099 f03d
00000090: 8438 7ebe 7b9f dd3d 090f e1bd 83c1 863e
000000a0: ac6f 42be dae3 81bb ba86 f5bd dfb9 603e
000000b0: eb83 de3b 4cd7 003e 6ae4 503d 1f44 0cbe
000000c0: 4aeb a43d e771 f3bd 810d f7bd 2944 7abc
000000d0: 81be 0c3e 2854 b93c fa72 203e 2daa b33d
000000e0: bb6f 293e cdd7 573d 96f3 babd c630 9dbe
000000f0: 4957 dabd f17a 1b3c 795b 953d 78a0 8b3d
00000100: 4bc1 d53d eb3e 86bd a595 71be 1eaa 74bd
00000110: 2dc5 bbbd bc56 e2bc 9b24 df3d 2b78 3bbd
00000120: a8cb c7bd c00a efbd 0800 343d 8aaf f83c
00000130: 43fd 37be f392 0d3e 4790 1c3d c8e7 acbc
00000140: b845 923b 71ce 96bd b7e3 9b3d 2450 63bd
00000150: 5c88 9a3d dd59 233e f9be f2bd 942c 81bc
00000160: 72f7 3cbe f767 2abd 0d65 d33a 1167 60bd
00000170: 258a 823d 0f75 f4bd ca0f 22be 6ee9 88bd
00000180: 724f 2e3d 686b 363e 7a13 ce39 a1fe f5bd
00000190: 4bcc bfbe 4e5d ac3d 2dd0 233e 158e 113a
000001a0: 1b0d a53d 562f 2f3c 28ee e73e c64c 46be
000001b0: 5c67 20bd a939 0d3e 9b67 503e a0b8 ae3c
000001c0: 65c1 fc3d b69b 703e 3fbf fdbc a292 2b3e
000001d0: 54ab a03d 1b79 273c 11bb 55bd 3650 f83d
000001e0: aa4d e33d 4711 22be 60f0 b23d 703e 41be
000001f0: 6103 51be 6ae6 b8bd 21e3 c1bc 454a b63c
00000200: ccd2 183d bbfe 843c 82ff c1bd 21d1 70be
00000210: ef35 17be 7c07 5ebd 637b 1dbd eb2c 563e
00000220: 5891 783d 58d3 2b3e 2ccf 6ebe 5700 acbd
00000230: 3683 c2bd e8bc 3e3e bba0 2d3e f602 8d3e
00000240: a452 c53e dc6e f43c 284f cfbc fa52 493d
00000250: a2ff 05be 1544 56be c4c9 313d a791 db3e
00000260: c3e9 e7bd a3be a83b a8c7 6fbd 5bce 963c
00000270: 1a0b 7ebd 7ad8 0e3c 0539 9cbe b1a1 dd3d
00000280: 307a 763c 12a5 1b3e 92a2 383e 3a0a 083c
00000290: 9939 c7bc 2ba1 a43e 62fd bebd 06ed 033d
000002a0: c339 80bd 0ed7 debc 0ad9 bcbc a709 d0bc
000002b0: 5c4d a03e d413 e83d c41f e6bd e5cb 13be
000002c0: ad4c 713e c9ba 2bbd 72db ccbd 3c3b cfbd
000002d0: be49 783d b872 6b3d 1dd0 823e 2353 743d
000002e0: 5d1a 6d3d cfff 88be c1d5 babd a2d7 a0bd
000002f0: 1765 14bd c7a0 92bd 9a9d cebe 7891 93be
00000300: 39fc 2c3d ea0d 23bd f97b 32be 2be9 a7bd
00000310: 80c4 b53d 2137 90bd f182 7abd 2abb edbc
00000320: 760c 143e 74de 36bb 28c7 e9bb 5ecb 053c
00000330: f083 65bd 2f6a 023e a33c 6f3e f3a7 853e
00000340: 1823 563e 460d 5f3e be18 063e fdce d63e
00000350: 37d2 09bb 28ac 883e 041f d83d e7db 6f3e
00000360: 4cef 973e a7f2 b93e 4900 0b3e 4a6e abbe
00000370: 30bc 84bd d78d 30be d014 03be 4508 953d
00000380: 15f1 65bb 0ad3 4f3d ff43 c7bc 26ce 9bbd
00000390: 581b 87bb e674 71be 5f12 183c 1f92 2bbd
000003a0: 83c1 26bd b45d 3bbd 08c1 253e 164f 4d3e
000003b0: ff62 b139 b466 47be 464e 4c3b 592f 3c3d
000003c0: 038e c03c 5f83 9bbe caee 1b3e 1961 aabd
000003d0: 6c44 6ebe 317a 4e3e 09e1 d5bc 6dfc 493d
000003e0: 0f6e 813b 84c3 b73e 4abd 623e 7292 f63c
000003f0: 6686 af3d fa94 043e a0bd bd3d aa48 3e3e

classifier.1.bias f4 [10]
0.1770209 -0.14719117 -0.0013951291 0.3463638 -0.34181178 0.16105646 0.23458914 0.1527364
-0.12294353 -0.51552415
00000000: f844 353e 48b9 16be c4dc b6ba 9956 b13e
00000010: f401 afbe fceb 243e 2338 703e ee66 1c3e
00000020: d1c9 fbbd 64f9 03bf
